model_weights.npz (npz, 623829 bytes, 7 tensors)

fc1_weight f4 [384, 91]
-0.01453077 0.018140404 0.10887576 0.0014324685 0.042736955 0.041258648 -0.0024786263 0.1090334
0.04838029 0.08495305 -0.061357755 0.09607084 -0.07173663 -0.0024958919 0.05524858 0.071329184
-0.084022686 0.07104009 0.061108287 0.08491162 0.03082173 -0.026863849 -0.022567147 -0.03533337
0.036633555 0.09014126 -0.016759446 -0.052048042 -0.0955343 -0.0069658426 0.02410852 0.110695966
-0.10144768 -0.08113962 -0.07021058 0.0006626422 -0.09820963 0.017203333 0.07456243 -0.011623052
-0.09908625 0.04533635 0.017759997 0.04794569 0.013123134 -0.089739695 -0.012962587 -0.047101136
0.06919574 0.0023536861 0.06340601 0.0034162912 -0.009827413 0.057103705 0.095337726 0.0764095
-0.016132364 -0.024711687 -0.08148674 -0.08833646 0.043620814 -0.106421925 0.073435485 -0.095819935
-0.05875955 0.025999127 0.036475275 -0.07605131 -0.07507552 0.015060811 0.013027714 -0.043430477
0.029758988 0.026201772 0.07376824 0.060214773 -0.08842533 0.09316714 -0.056529228 -0.04446294
0.09859708 1.8570005e-14 -4.808784e-12 -1.411311e-15 2.838855e-13 -3.530239e-16 -5.4203176e-15 1.9942156e-15
-4.580696e-16 3.4867184e-15 0.10200977 -0.01756523 -0.0045298766 -0.020954493 -0.0789363 0.067602776
-0.06341173 -0.030514965 -0.07520284 0.030398441 0.06327836 -0.012491385 0.009381265 0.021970352
-0.16264841 -0.104633965 -0.020127555 -0.07407893 -0.029022569 0.104362294 -0.04774579 0.048103623
0.06358871 0.059899163 0.07020458 0.056702457 0.027117768 -0.028294884 -0.08612319 0.049836375
-0.014800763 -0.11822906 0.08686771 0.026041692 0.0782141 -0.054453127 0.071084514 0.09902838
0.057289947 -0.0086983135 -0.020277815 0.02055904 -0.014658603 -0.024216972 -0.104217455 -0.043725066
0.059693255 -0.060433045 -0.024992675 -0.030325003 0.08812888 -0.11535259 0.041547567 -0.11203673
-0.0731781 0.07238342 -0.054376107 -0.110116445 0.003543694 0.028679956 -0.027821662 0.0037634335
0.08318387 0.044048995 -0.037878025 0.09168364 -0.052874666 -0.011432214 0.051781897 -0.021580277
0.10144693 -0.11198962 0.020860875 0.069014035 -0.11012939 -0.04358537 -0.10958785 -0.06087571
0.12396946 0.0010237617 0.07959923 -0.0066850097 -5.238183e-15 9.457133e-16 -1.1185302e-16 -7.3252886e-16
-7.955569e-16 3.2302983e-16 -5.8769904e-16 -6.3276122e-15 -3.1687616e-13 0.017896248 0.007322101 -0.006291571
-0.08710387 -0.011936606 0.029269343 -0.050286766 0.04678266 -0.075864635 -0.053322554 -0.04029168
0.017842954 -0.094657235 0.014593395 0.0024357443 -0.06253026 -0.021187555 0.049257178 0.042163376
0.1087247 0.0761175 0.033671133 -0.027326873 -0.02550787 -0.021716956 0.03280615 -0.0054953294
-0.017644208 0.12611529 -0.070914336 0.0051384578 -0.029569691 0.056752585 -0.08809488 0.010033508
-0.081406616 -0.043583445 -0.034222715 -0.06811219 0.004896234 0.020961763 0.048940305 0.027301032
0.10499254 -0.10071879 -0.08244753 -0.013810791 0.07563921 0.040307853 -0.05639598 0.024552314
-0.03566973 -0.12599516 -0.0077651236 -0.043531083 -0.07990623 -0.02373248 0.037332147 -0.0603932
0.04459904 -0.029334523 0.019300135 -0.02466643 -0.034140456 -0.039585687 0.060747955 -0.032440208
-0.11958995 0.07977407 -0.016344048 -0.019575015 -0.08366397 -0.06745423 0.08362509 -0.07937705
00000000: 7712 6ebc 2f9b 943c 41fa de3d abc1 bb3a
00000010: f20c 2f3d d4fe 283d 7370 22bb e74c df3d
00000020: 692a 463d ddfb ad3d 4552 7bbd cac0 c43d
00000030: a7ea 92bd 1e92 23bb 564c 623d 0915 923d
00000040: 1614 acbd 777d 913d af4c 7a3d 25e6 ad3d
00000050: da7d fc3c 9311 dcbc bdde b8bc b9b9 10bd
00000060: 110d 163d fb9b b83d 1b4b 89bc 5430 55bd
00000070: 7da7 c3bd b941 e4bb 3b7f c53c 91b4 e23d
00000080: cdc3 cfbd 872c a6bd 91ca 8fbd 2ab5 2d3a
00000090: 2122 c9bd 01ee 8c3c 30b4 983d 9d6e 3ebc
000000a0: bbed cabd 9cb2 393d 6a7d 913c b362 443d
000000b0: 6a02 573c 72c9 b7bd 0861 54bc 1fed 40bd
000000c0: 7fb6 8d3d 4d40 1a3b 03db 813d dbe3 5f3b
000000d0: 2803 21bc 93e5 693d 6d40 c33d 957c 9c3d
000000e0: 0528 84bc 2a70 cabc 85e2 a6bd bfe9 b4bd
000000f0: bdab 323d bdf3 d9bd 5865 963d 3e3d c4bd
00000100: dbad 70bd 1ffc d43c 1967 153d cac0 9bbd
00000110: 32c1 99bd 9fc1 763c 3172 553c 28e4 31bd
00000120: 1fc9 f33c 19a5 d63c ce13 973d c4a3 763d
00000130: 5718 b5bd 6ace be3d 318b 67bd c61e 36bd
00000140: 44ed c93d 8443 a728 ad31 a9ac 3064 cba6
00000150: 36d0 9f2a 2281 cba5 9b49 c3a7 c9b2 0f27
00000160: 9207 04a6 9a3e 7b27 80ea d03d f5e4 8fbc
00000170: 5c6f 94bb c2a8 abbc 5ba9 a1bd 5373 8a3d
00000180: 02de 81bd 85fa f9bc f203 9abd 2706 f93c
00000190: 1698 813d aba8 4cbc e1b3 193c 2bfb b33c
000001a0: 4e8d 26be 554a d6bd 8be2 a4bc b2b6 97bd
000001b0: bdc0 edbc e6bb d53d 1791 43bd 4e08 453d
000001c0: cc3a 823d d358 753d 6bc7 8f3d d640 683d
000001d0: 1526 de3c acca e7bc 5b61 b0bd 3a21 4c3d
000001e0: e67e 72bc 1422 f2bd b3e7 b13d 6355 d53c
000001f0: b72e a03d 3e0a 5fbd c294 913d 64cf ca3d
00000200: dda8 6a3d 5f83 0ebc a91d a6bc 6f6b a83c
00000210: a32a 70bc ac62 c6bc f66f d5bd 0e19 33bd
00000220: ea80 743d a488 77bd 70bd ccbc 246c f8bc
00000230: ea7c b43d fb3d ecbd c82d 2a3d 8373 e5bd
00000240: 66de 95bd c23d 943d 7bb9 5ebd bb84 e1bd
00000250: 523d 683b 3af2 ea3c 41ea e3bc f0a3 763b
00000260: 4e5c aa3d b86c 343d fd25 1bbd a2c4 bb3d
00000270: 1b93 58bd 2e4e 3bbc 4119 543d 1fc9 b0bc
00000280: 68c3 cf3d d05a e5bd 6de4 aa3c 3b57 8d3d
00000290: 858b e1bd 9386 32bd 986f e0bd cf58 79bd
000002a0: b3e3 fd3d be2f 863a ec04 a33d ed0d dbbb
000002b0: b6b9 bca7 aa4a 8826 2ff5 00a5 1723 53a6
000002c0: bd4d 65a6 ca36 ba25 8964 29a6 ecf9 e3a7
000002d0: ab62 b2aa 279b 923c 3cee ef3b 8629 cebb
000002e0: 8463 b2bd c191 43bc 43c6 ef3c 7ff9 4dbd
000002f0: 2d9f 3f3d eb5e 9bbd c068 5abd e308 25bd
00000300: 632b 923c a7db c1bd 2319 6f3c 02a1 1f3b
00000310: dd0f 80bd 8691 adbc e5c1 493d 81b3 2c3d
00000320: 0eab de3d 7ee3 9b3d beea 093d 9bdc dfbc
00000330: e1f5 d0bc c2e7 b1bc be5f 063d 2a12 b4bb
00000340: 968a 90bc 5e24 013e 893b 91bd 8260 a83b
00000350: 233c f2bc 6675 683d 176b b4bd 9563 243c
00000360: 83b8 a6bd 8e84 32bd 1e2d 0cbd 677e 8bbd
00000370: 9670 a03b 01b8 ab3c a175 483d 6aa6 df3c
00000380: 5406 d73d a745 cebd 40da a8bd a846 62bc
00000390: bbe8 9a3d d919 253d 79ff 66bd ef21 c93c
000003a0: 6c1a 12bd e004 01be 9472 febb a64d 32bd
000003b0: e1a5 a3bd 9e6a c2bc 98e9 183d dc5e 77bd
000003c0: 7cad 363d f44e f0bc 511b 9e3c 4111 cabc
000003d0: ddd6 0bbd 9a24 22bd d9d2 783d 06e0 04bd
000003e0: 93eb f4bd 9660 a33d f4e3 85bc c85b a0bc
000003f0: 0458 abbd 7125 8abd a243 ab3d 6f90 a2bd

fc1_bias f4 [384]
-0.025119878 -0.10926398 0.049204376 -0.061762393 -0.059006248 0.14181082 0.016905481 0.059823133
-0.103021845 0.04218521 -0.08791619 -0.084416665 0.09406737 -0.03174713 0.023382705 0.021744614
0.098539844 -0.009228467 0.10052343 -0.024938375 0.061895635 0.0777795 -0.10441321 0.057991788
0.11529366 -0.007932366 -0.048964106 -0.089861296 -0.08219095 -0.08734276 -0.097473666 -0.005304369
0.07949244 0.11776563 0.07816873 0.020870965 -0.0645374 -0.030795297 0.0020224948 0.123239346
-0.07649828 0.070007436 -0.08874986 -0.021610172 -0.048640657 -0.031580307 0.021087268 0.10299238
-0.07401431 0.052425545 -0.004234568 -0.0173824 0.110081874 0.05191454 0.04199617 0.044946183
-0.022285245 -0.104403876 0.030532531 -0.051361192 0.006026766 -0.08625992 -0.054524757 -0.11916899
0.028663697 0.030999117 -0.0026362939 -0.09571505 -0.103359535 -0.014890719 -0.033014387 0.014918058
0.07851013 -0.039319355 -0.014433053 0.09225936 0.05248097 0.0009997743 0.032502517 -0.00062860956
-0.045940008 0.045202233 0.043249976 -0.08534608 -0.015030528 0.058805622 0.04440031 -0.09075684
0.07399322 0.08328007 0.012052838 0.09150068 -0.068236776 0.09964025 0.07831472 0.12181221
0.0870791 0.076462865 0.077929504 0.06405034 -0.043837603 -0.029987391 -0.09908277 -0.032650903
0.08611741 0.013831359 0.046996307 -0.049491704 0.023239123 -0.02364461 -0.015002429 -0.048610512
-0.031739105 0.0890048 -0.06232848 0.1030349 -0.002779688 -0.020451074 0.06971998 -0.0044198344
-0.0020346614 -0.075476825 0.0252459 -0.07942682 -0.021499146 -0.07516844 0.074806 0.09120036
0.0007376825 0.004612114 -0.08581939 -0.03750001 0.059243478 -0.05407055 0.022062764 0.027838686
-0.079671934 -0.08358067 -0.04777514 -0.003417994 0.02751786 0.07020725 -0.043064013 -0.09354526
-0.057360988 -0.09402247 0.09046654 0.12634341 0.04466452 -0.013984328 0.06624626 -0.0946921
-0.10886034 0.006651954 -0.009777815 -0.08031165 0.015469253 0.009220361 0.07225029 -0.115455694
-0.12553948 -0.020003961 0.03922104 -0.086002775 0.0012548667 -0.07471946 0.018763978 -0.026022017
-0.08311802 -0.0738318 -0.030260583 0.066323236 0.0076809395 0.015272389 0.09139624 -0.022803199
-0.11646846 -0.11308746 -0.04830737 -0.10714549 0.020932974 -0.07449841 -0.08518304 0.032381713
-0.045536272 -0.10357051 -0.10821203 0.031923644 -0.067398846 0.004770731 0.104503125 0.06616714
0.03600465 0.077782705 0.011252861 0.08317115 0.0684087 -0.07228715 0.05609638 0.03590792
0.11610709 -0.07889467 -0.043301467 0.0527281 0.1547489 0.010507804 -0.0910436 0.0048448336
0.053715147 0.011031477 0.051022988 0.1394711 -0.034344446 -0.027779846 -0.08836955 0.04946311
-0.07796768 -0.053974357 0.044405393 -0.042274483 -0.061064422 -0.10263068 -0.029262265 0.00086324045
0.071514875 -0.009630712 0.033331 -0.04694258 0.06453552 -0.035806134 0.049202777 0.011134284
0.022528 0.030161476 -0.0011557931 0.042899452 0.0033447887 -0.050661307 0.0002809514 0.0057820464
0.07354574 0.080426745 0.010184679 -0.058057457 -0.052191865 -0.05660218 0.024356818 -0.0072880094
-0.03893223 0.08429313 0.09972764 -0.011320915 0.11956198 -0.023025673 -0.10382613 0.09346235
00000000: 34c8 cdbc cbc5 dfbd 878a 493d 90fa 7cbd
00000010: 89b0 71bd db36 113e 5d7d 8a3c 1a09 753d
00000020: 1efd d2bd 66ca 2c3d 670d b4bd a5e2 acbd
00000030: 65a6 c03d 4709 02bd 168d bf3c c321 b23c
00000040: 42cf c93d ff32 17bc 3adf cd3d 904b ccbc
00000050: 4786 7d3d dc4a 9f3d 98d6 d5bd cc88 6d3d
00000060: 151f ec3d c1f6 01bc 968e 48bd 3309 b8bd
00000070: bb53 a8bd c3e0 b2bd 46a0 c7bd 46d0 adbb
00000080: efcc a23d 1b2f f13d ed16 a03d 96f9 aa3c
00000090: 2f2c 84bd 6b46 fcbc d58b 043b e964 fc3d
000000a0: 21ab 9cbd 0f60 8f3d 7dc2 b5bd d107 b1bc
000000b0: 6d3b 47bd 5a5a 01bd 35bf ac3c abed d23d
000000c0: d194 97bd 2bbc 563d 22c2 8abb 8965 8ebc
000000d0: 9b72 e13d 57a4 543d 2d04 2c3d 7d19 383d
000000e0: 8c8f b6bc b3d1 d5bd 5c1f fa3c 1d60 52bd
000000f0: 2d7c c53b 0aa9 b0bd 5a55 5fbd df0e f4bd
00000100: 21d0 ea3c dcf1 fd3c acc5 2cbb 4106 c4bd
00000110: 2aae d3bd 34f8 73bc 183a 07bd df6a 743c
00000120: ebc9 a03d 550d 21bd 9d78 6cbc 7af2 bc3d
00000130: 49f6 563d dc0a 833a 5c21 053d 46c9 24ba
00000140: 972b 3cbd fa25 393d e326 313d edc9 aebd
00000150: 9b42 76bc 2ade 703d 19dd 353d b9de b9bd
00000160: c289 973d be8e aa3d 4479 453c b564 bb3d
00000170: b9bf 8bbd 3010 cc3d 7863 a03d ae78 f93d
00000180: 8756 b23d 9098 9c3d 8199 9f3d d32c 833d
00000190: 0f8f 33bd 1ea8 f5bc e8eb cabd f4bc 05bd
000001a0: 535e b03d ed9c 623c 337f 403d d0b7 4abd
000001b0: f95f be3c 57b2 c1bc bfcc 75bc d11b 47bd
000001c0: dd00 02bd 2648 b63d 264c 7fbd f603 d33d
000001d0: 6d2b 36bb 0389 a7bc 59c9 8e3d 42d4 90bb
000001e0: f457 05bb 9893 9abd 7dd0 ce3c 87aa a2bd
000001f0: fa1e b0bc e9f1 99bd e333 993d 41c7 ba3d
00000200: 0961 413a 3721 973b 14c2 afbd 9c99 19bd
00000210: 4aa9 723d 1579 5dbd f8bc b43c f50d e43c
00000220: 0a2b a3bd 582c abbd ddaf 43bd 6c00 60bb
00000230: 236d e13c d2c8 8f3d e463 30bd a894 bfbd
00000240: 5bf3 6abd da8e c0bd 8546 b93d 2b60 013e
00000250: 25f2 363d 861e 65bc 1fac 873d efed c1bd
00000260: 2cf2 debd a2f8 d93b 2133 20bc 6f7a a4bd
00000270: c072 7d3c ff10 173c f6f7 933d 0974 ecbd
00000280: 6c8d 00be 59df a3bc 3ea6 203d 3922 b0bd
00000290: 577a a43a 8406 99bd eab6 993c 202c d5bc
000002a0: c839 aabd 2035 97bd 0be5 f7bc 7ad4 873d
000002b0: 64b0 fb3b 0b39 7a3c f42d bb3d c6cd babc
000002c0: 0487 eebd 669a e7bd f3dd 45bd 186f dbbd
000002d0: a17b ab3c 9f92 98bd 7274 aebd b0a2 043d
000002e0: 3e84 3abd c71c d4bd 459e ddbd 5ec2 023d
000002f0: 6808 8abd cb53 9c3b bc05 d63d a382 873d
00000300: 9d79 133d 8a4c 9f3d eb5d 383c a355 aa3d
00000310: dc19 8c3d 490b 94bd 51c5 653d 2f14 133d
00000320: 8ec9 ed3d 8793 a1bd e15c 31bd 6cf9 573d
00000330: 7f76 1e3e ed28 2c3c 1175 babd 69c1 9e3b
00000340: 6a04 5c3d 5ebd 343c 7bfd 503d 83d1 0e3e
00000350: c3ac 0cbd 8f92 e3bc 18fb b4bd d499 4a3d
00000360: 85ad 9fbd 3714 5dbd 6ee2 353d 0228 2dbd
00000370: b01e 7abd 0930 d2bd 6bb7 efbc 164b 623a
00000380: 6476 923d 22ca 1dbc 1686 083d dd46 40bd
00000390: 332b 843d 74a9 12bd da88 493d 926c 363c
000003a0: a48c b83c 3315 f73c fb7d 97ba 56b7 2f3d
000003b0: 3e34 5b3b 3b82 4fbd a94c 9339 5277 bd3b
000003c0: 269f 963d c7b6 a43d a4dd 263c a8cd 6dbd
000003d0: 23c7 55bd b0d7 67bd f387 c73c 41d0 eebb
000003e0: 6777 1fbd e0a1 ac3d 013e cc3d 5c7b 39bc
000003f0: e9dc f43d 56a0 bcbc cba2 d4bd 3069 bf3d

fc2_weight f4 [256, 384]
0.004643598 -0.04200058 0.0058817207 0.059174668 -0.053183362 0.046832267 -0.031793434 0.045911092
-0.055943646 0.07994014 -0.11162716 -0.04410314 0.011414114 -0.07211952 -0.054400668 -0.015243406
-0.046803836 -0.111402 -0.050021686 -0.036727864 0.00060815585 -0.05124097 -0.024896264 -0.054500446
0.0416738 0.009147775 0.015477593 0.007849326 0.057709225 -0.046595793 -0.058573466 -0.059099548
0.025495848 0.07338782 -0.063155174 0.056453906 0.027057178 0.014127633 0.0467843 0.0065092337
0.032937765 0.05699017 0.06321318 0.04301769 0.1805232 -0.017525531 0.020377547 0.027362002
-0.0067923935 -0.07806116 -0.016349135 0.024961758 0.020350413 0.058371685 0.01868662 -0.049969412
0.0067513767 0.039486032 0.027583405 -0.0120433215 -0.01656733 -0.102035955 0.00905065 -0.034889445
-0.024738694 -0.011375622 -0.036223706 0.05187261 0.008471134 0.007396356 -0.017786074 -0.02157577
0.0065131276 0.003546208 -0.11274328 0.078578584 -0.043672204 0.0438875 0.0043245694 -0.16578937
-0.051794987 0.048427943 0.0022692615 -0.04795483 0.014389878 -0.185117 -0.04761606 -0.06988626
-0.02421279 0.114918076 -0.005159119 0.02420825 0.027446048 -0.06618414 0.006945164 -0.092669606
0.01443864 0.010294203 -0.054245047 0.01983728 0.022334237 0.008354766 -0.0906235 -0.11055304
0.00316162 -0.05806381 0.018768027 0.10868013 -0.00013823708 -0.05582928 0.011262172 0.015385007
0.060929794 0.04353617 0.027459824 -0.026496118 0.006338927 0.045175925 0.030192701 -0.019573987
0.0017571402 -0.059904285 0.035726693 -0.0018431393 0.06991241 0.020528385 -0.028752578 -0.00089212286
0.011337028 -0.0059703835 -0.02198084 -0.14639693 -0.0069542937 -0.022194609 0.018748399 0.0075198743
0.015890151 -0.0074149496 -0.11008399 0.0029030205 0.00906347 0.00558458 -0.010327771 0.0075976695
0.000255452 -0.11465233 -0.006777596 -0.022374861 -0.015216608 -0.16171892 -0.034605898 0.06929514
-0.014418884 0.0941377 0.052023053 -0.08085104 0.045363963 -0.0001247146 -0.036566854 0.034059446
-0.091748275 -0.03421408 0.0028455774 -0.04380926 -0.005105369 0.013261462 -0.005162244 0.022439418
-0.02183219 -0.094479814 0.02320777 0.03358575 -0.014162628 -0.023153277 -0.0074080112 0.020040823
-0.042718824 0.10462509 -0.026449187 -0.0063453782 -0.04874262 0.01390091 -0.14151986 0.09078993
0.024546029 0.053370085 0.0027662048 -0.039415732 -0.011610326 -0.059980072 -0.006497983 -0.020585053
0.048218064 -0.020321084 -0.05570656 0.04121944 0.021415852 0.030243684 -0.10847072 0.0035730703
-0.10517681 -0.06374883 -0.09858526 0.0046752477 -0.06323233 -0.04450554 -0.012835441 -0.035780154
-0.016469333 0.004357813 0.034989577 0.02451196 -0.036825404 -0.014832288 0.0063959956 0.040170707
-0.0038396406 -0.0681834 0.009033716 0.045006435 0.04670212 -0.10256037 -0.014731986 -0.033595555
-0.010310702 -0.03490698 -0.02093963 -0.004375546 0.048699696 0.075082876 -0.15364866 -0.11673445
-0.057547636 -0.14820576 0.020316815 0.0018714877 -0.025340425 -0.06991012 -0.025227081 0.0045487657
-0.05722377 0.07018531 -0.12950711 0.057858247 0.056849048 -0.025855418 0.05241702 0.010386076
-0.06898063 0.054092407 -0.008987043 -0.029063616 -0.003483056 -0.051479198 -0.026527641 0.0039965557
00000000: 5329 983b cd08 2cbd 73bb c03b 2361 723d
00000010: ccd6 59bd 31d3 3f3d d539 02bd 450d 3c3d
00000020: 2a25 65bd a8b7 a33d c89c e4bd 7ea5 34bd
00000030: 4402 3b3c 66b3 93bd 3cd3 5ebd 7bbf 79bc
00000040: 61b5 3fbd bb26 e4bd 8ae3 4cbd f56f 16bd
00000050: a66c 1f3a 0de2 51bd 40f3 cbbc dc3b 5fbd
00000060: 26b2 2a3d 8de0 153c bb95 7d3c 769a 003c
00000070: 8260 6c3d 3bdb 3ebd bbea 6fbd 5e12 72bd
00000080: abdc d03c 5a4c 963d 8057 81bd 363c 673d
00000090: 04a7 dd3c 9677 673c e5a0 3f3d 694b d53b
000000a0: c0e9 063d 866e 693d e975 813d 5133 303d
000000b0: 13db 383e b491 8fbc d0ee a63c 4726 e03c
000000c0: ba92 debb 88de 9fbd 9fee 85bc 9a7c cc3c
000000d0: e9b5 a63c 2617 6f3d af14 993c baac 4cbd
000000e0: a73a dd3b 1bbc 213d 98f6 e13c 5a51 45bc
000000f0: 36b8 87bc 3af8 d0bd 2d49 143c 3ce8 0ebd
00000100: cda8 cabc d160 3abc 4f5f 14bd 6078 543d
00000110: 83ca 0a3c 225d f23b 1ab4 91bc abbf b0bc
00000120: 136c d53b 7f67 683b f3e5 e6bd cfed a03d
00000130: a0e1 32bd 61c3 333d 1eb5 8d3b b0c4 29be
00000140: fb26 54bd 615c 463d e4b7 143b 496c 44bd
00000150: 86c3 6b3c 508f 3dbe 0f09 43bd 8720 8fbd
00000160: e759 c6bc 2b5a eb3d d40d a9bb 6150 c63c
00000170: 89d6 e03c 8d8b 87bd 4294 e33b 90c9 bdbd
00000180: 0c90 6c3c 04a9 283c 0e30 5ebd cb81 a23c
00000190: 4af6 b63c 6ee2 083c d098 b9bd a269 e2bd
000001a0: 2f33 4f3b 51d4 6dbd 68bf 993c b093 de3d
000001b0: bcf3 10b9 3ead 64bd f984 383c 6511 7c3c
000001c0: 8591 793d fc52 323d 6df3 e03c 630e d9bc
000001d0: c6b6 cf3b 640a 393d af56 f73c a059 a0bc
000001e0: d74f e63a 325e 75bd 2756 123d 7e95 f1ba
000001f0: 3d2e 8f3d 252b a83c 878a ebbc 5add 69ba
00000200: f1be 393c 35a3 c3bb 2a11 b4bc 14e9 15be
00000210: d8e0 e3bb 78d1 b5bc 3e96 993c 4769 f63b
00000220: 102c 823c 1bf9 f2bb b773 e1bd 9a40 3e3b
00000230: f37e 143c dafe b63b d035 29bc dff5 f83b
00000240: 30ee 8539 d7ce eabd 9916 debb 7c4b b7bc
00000250: 144f 79bc a599 25be eabe 0dbd 9cea 8d3d
00000260: 2f3d 6cbc 44cb c03d 2016 553d 3b95 a5bd
00000270: 90cf 393d d2c5 02b9 20c7 15bd eb81 0b3d
00000280: 85e6 bbbd 1024 0cbd de7c 3a3b 5771 33bd
00000290: f04a a7bb 9a46 593c 0b28 a9bb dfd2 b73c
000002a0: 6cd9 b2bc a27e c1bd 391e be3c 3691 093d
000002b0: 5e0a 68bc f1ab bdbc e7be f2bb a72c a43c
000002c0: eff9 2ebd ae45 d63d f7ab d8bc e4ec cfbb
000002d0: 57a6 47bd a4c0 633c 95ea 10be 12f0 b93d
000002e0: c114 c93c 979a 5a3d 3749 353b 6472 21bd
000002f0: 3d39 3ebc aaad 75bd 08ed d4bb fca1 a8bc
00000300: 4e80 453d 6778 a6bc 902c 64bd b7d5 283d
00000310: 4c70 af3c 9ac1 f73c e625 debd 2c2a 6a3b
00000320: f066 d7bd bf8e 82bd 12e7 c9bd d232 993b
00000330: f47f 81bd 714b 36bd be4b 52bc 368e 12bd
00000340: b2ea 86bc fccb 8e3b 3b51 0f3d 4ecd c83c
00000350: 3cd6 16bd 2003 73bc 8095 d13b 0a8a 243d
00000360: 7ba2 7bbb bda3 8bbd 2702 143c ab58 383d
00000370: b94a 3f3d 2c0b d2bd 6e5e 71bc 7e9b 09bd
00000380: 38ee 28bc 9ffa 0ebd 9689 abbc bd60 8fbb
00000390: 5579 473d 0dc5 993d 1356 1dbe 7912 efbd
000003a0: 12b7 6bbd 40c3 17be 736f a63c b54c f53a
000003b0: b996 cfbc 092d 8fbd 06a9 cebc d00d 953b
000003c0: 7963 6abd 51bd 8f3d 839d 04be c5fc 6c3d
000003d0: 8cda 683d bece d3bc 3bb3 563d 5c2a 2a3c
000003e0: b745 8dbd 0090 5d3d 643e 13bc d216 eebc
000003f0: fc43 64bb dadb 52bd 7f50 d9bc 8af5 823b

fc2_bias f4 [256]
-0.008025242 0.037765898 -0.048109684 -0.0658071 -0.035775237 -0.012136173 -0.019708114 -0.047424152
0.03577432 -0.014285519 0.070156805 0.025139907 -0.032125287 -0.022132428 -0.017203977 0.01702691
0.05036036 -0.012338474 0.022761073 0.020866528 -0.03080489 -0.03538008 -0.01065887 -0.029096443
-0.011065763 -0.02899636 -0.0305419 -0.033296525 0.034708545 -0.025271343 0.007845142 -0.0410847
0.0046076686 0.025708443 0.039559375 -0.02491969 -0.0030473317 -0.006160868 -0.029387765 -0.03964846
-0.040493205 0.008756881 -0.05684874 0.038307685 -0.03831582 0.046223972 0.0032194662 -0.044369526
-0.032904916 0.025501005 0.028383978 0.043176875 -0.0050366432 -0.022313248 0.028825805 -0.043743733
-0.024712725 0.003932968 -0.0456592 0.004075969 0.010442319 -0.05113132 -0.06300984 0.014846901
-0.01750773 0.010616787 -0.034607623 0.028960332 0.015205668 -0.03437744 -0.03924899 -0.03283939
-0.022723228 -0.03429885 -0.0077799973 0.015394976 0.0012186407 -0.044159595 -0.05166071 -0.03149129
-0.038908336 0.029485364 0.049008563 -0.041304298 -0.03186147 0.001967407 -0.008744089 -0.014314094
0.020660006 -0.05924313 0.0032308034 0.031490527 -0.01927046 -0.0030372567 -0.04030966 0.023894977
0.001568892 0.0369048 -0.027353516 -0.034799468 -0.02502534 -0.040346902 -0.021382602 0.018208817
0.03051008 0.022902438 0.009367988 -0.038377814 0.006256436 -0.035538904 -0.04112847 -0.04206852
-0.012401889 -0.039509192 0.057191614 0.010352106 -0.002665555 -0.004271906 -0.00077629974 -0.02183815
0.003004768 -0.023452766 -0.021573301 -0.04746267 0.018330965 0.028639775 0.016218536 0.04052117
0.051958736 0.019732488 0.023808168 -0.010416962 -0.051465776 0.014168026 -0.07703432 -0.029777702
0.00974253 0.012612531 -0.050240077 0.017135216 0.052595805 -0.00051098154 -0.058557793 0.030937528
0.025863629 -0.016118357 0.04752836 0.05333629 0.040563002 -0.0071579465 -0.05555619 -0.0012183991
-0.0074893218 -0.028373005 0.035795875 -0.03513506 -0.0359886 -0.04526151 0.021037133 -0.012735972
0.044899605 0.0102709485 -0.045578253 0.03494232 0.027289525 -0.0042169597 -0.04622996 0.013265831
-0.010538423 0.013195398 0.039293516 -0.034171283 0.009142499 0.04124436 0.039261427 -0.044326905
0.008919119 0.023181036 -0.006939418 -0.03251596 -0.040551227 -0.051722962 0.0018834858 -0.044612885
0.024725648 -0.044239473 -0.03348324 -0.051801316 -0.016995164 -0.017631985 0.009263105 0.033201013
-0.018133499 -0.045646973 0.0025380168 -0.041841593 -0.0054255486 0.00025478477 -0.0352524 0.019190378
0.031210506 0.02917973 -0.039554268 -0.0052250773 -0.0058137076 0.008174804 -0.02601166 0.017156854
-0.071092896 -0.049503546 0.017832616 -0.041998256 0.04093196 -0.026938114 -0.016658023 0.010973039
0.04622306 -0.0034728402 0.013992861 -0.017434139 -0.038536012 -0.0016173712 -0.03029894 -0.0075978125
0.0013529195 0.010797167 -0.030897627 -0.03080574 -0.04022821 0.0021262409 0.024705036 0.0010409447
-0.0042565246 -0.023761965 0.081076995 -0.023006037 -0.021503905 0.00982442 0.0046028546 -0.02246038
0.00856134 -0.03338256 -0.05410645 -0.018138882 -0.006695203 -0.046018787 -0.048540335 -0.006937574
-0.0039680926 -0.024335703 -0.04595058 -0.04858556 -0.032901496 0.012478468 0.045695376 0.00949315
00000000: 4e7c 03bc 6ab0 1a3d a90e 45bd dfc5 86bd
00000010: 0e89 12bd cdd6 46bc e972 a1bc d43f 42bd
00000020: 1888 123d cf0d 6abc 5fae 8f3d 35f2 cd3c
00000030: ce95 03bd 114f b5bc 5bef 8cbc 057c 8b3c
00000040: aa46 4e3d 5027 4abc 6e75 ba3c 48f0 aa3c
00000050: 895a fcbc b4ea 10bd 8ba2 2ebc aa5b eebc
00000060: 2d4d 35bc c689 edbc 0233 fabc f061 08bd
00000070: 8c2a 0e3d d905 cfbc e988 003c 6e48 28bd
00000080: edfb 963b 839a d23c 0309 223d 6124 ccbc
00000090: beb5 47bb 1be1 c9bb 9cbe f0bc 6c66 22bd
000000a0: 34dc 25bd 0579 0f3c 39da 68bd 85e8 1c3d
000000b0: 0df1 1cbd 5955 3d3d aefd 523b d2bc 35bd
000000c0: 4ec7 06bd 7ce7 d03c 8485 e83c 3cda 303d
000000d0: 6d0a a5bb 46ca b6bc 1824 ec3c a12c 33bd
000000e0: 5772 cabc 20e0 803b 2405 3bbd b58f 853b
000000f0: 4316 2b3c 136f 51bd 4e0b 81bd 6b40 733c
00000100: 5f6c 8fbc 08f2 2d3c b9c0 0dbd 383e ed3c
00000110: 3221 793c 5ccf 0cbd 8dc3 20bd 9982 06bd
00000120: 1026 babc f37c 0cbd 59ef febb 363b 7c3c
00000130: ccba 9f3a b1e0 34bd 2e9a 53bd 03fd 00bd
00000140: 595e 1fbd 4a8b f13c 34bd 483d b22e 29bd
00000150: 2c81 02bd 9def 003b 5e43 0fbc a985 6abc
00000160: 2c3f a93c eda8 72bd e3bb 533b 36fc 003d
00000170: 15dd 9dbc b60c 47bb be1b 25bd 66bf c33c
00000180: 48a3 cd3a 7d29 173d 7b14 e0bc e389 0ebd
00000190: f101 cdbc cb42 25bd 912a afbc a82a 953c
000001a0: 46f0 f93c e59d bb3c 317c 193c 0e32 1dbd
000001b0: ca02 cd3b 3e91 11bd 5476 28bd 0a50 2cbd
000001c0: 4b31 4bbc 64d4 21bd c141 6a3d e19b 293c
000001d0: 98b0 2ebb 58fb 8bbb 9880 4bba ece5 b2bc
000001e0: a4eb 443b 0420 c0bc 7eba b0bc 3768 42bd
000001f0: d22a 963c f69d ea3c bcdc 843c 87f9 253d
00000200: afd2 543d 07a6 a13c 5909 c33c e8ab 2abc
00000210: c7cd 52bd 0221 683c 2bc4 9dbd 5ef0 f3bc
00000220: 229f 1f3c caa4 4e3c 8ac8 4dbd 275f 8c3c
00000230: b36e 573d 64f3 05ba 4cda 6fbd b370 fd3c
00000240: f6df d33c a50a 84bc 19ad 423d 2777 5a3d
00000250: 6425 263d 358d eabb e38e 63bd b1b2 9fba
00000260: fc68 f5bb 816e e8bc b29e 123d c8e9 0fbd
00000270: c868 13bd 2264 39bd 1156 ac3c 8aaa 50bc
00000280: a6e8 373d 7b47 283c 43b0 3abd ae1f 0f3d
00000290: 488e df3c 6c2e 8abb a05b 3dbd ee58 593c
000002a0: 5aa9 2cbc 8331 583c 3df2 203d 30f7 0bbd
000002b0: 6cca 153c d9ef 283d 97d0 203d 2190 35bd
000002c0: 7f21 123c 28e6 bd3c 0f64 e3bb 752f 05bd
000002d0: 0b19 26bd 75db 53bd 4cdf f63a 00bc 36bd
000002e0: 718d ca3c 7334 35bd b925 09bd 9e2d 54bd
000002f0: 7139 8bbc f470 90bc 47c4 173c c9fd 073d
00000300: b48c 94bc 52f8 3abd db54 263b 1762 2bbd
00000310: cdc8 b1bb a294 8539 d264 10bd 2435 9d3c
00000320: 2dad ff3c 540a ef3c a803 22bd 2037 abbb
00000330: ea80 bebb 9def 053c 6816 d5bc 888c 8c3c
00000340: 2799 91bd 3bc4 4abd b515 923c 5d06 2cbd
00000350: 45a8 273d 52ad dcbc 6876 88bc 43c8 333c
00000360: 6454 3d3d 9798 63bb 5042 653c 0ad2 8ebc
00000370: f0d7 1dbd f9fd d3ba 7c35 f8bc 12f7 f8bb
00000380: 7254 b13a 9ae6 303c 051d fdbc 525c fcbc
00000390: 56c6 24bd 6758 0b3b 3762 ca3c 4f70 883a
000003a0: 517a 8bbb 74a8 c2bc b20b a63d 2877 bcbc
000003b0: f528 b0bc 9bf6 203c 8bd3 963b d5fe b7bc
000003c0: dd44 0c3c 27bc 08bd ba9e 5dbd fe97 94bc
000003d0: 6f63 dbbb 327e 3cbd 3bd2 46bd 9754 e3bb
000003e0: c606 82bb ab5b c7bc ad36 3cbd a701 47bd
000003f0: b8c3 06bd 7d72 4c3c 132b 3b3d 2889 1b3c

fc3_weight f4 [128, 256]
0.18456082 0.09297518 -0.025550226 0.056438655 -0.14714737 -0.022018008 -0.0010857414 0.031868424
0.14212497 -0.06858477 -0.000675995 -0.04917257 -0.0049895253 -0.22247885 0.006129464 0.047082946
0.07652929 0.04476407 -0.086245835 -0.037274815 -0.25610203 -0.16943122 0.012295092 -0.20201328
-0.20442033 -0.041281193 -0.00046098998 0.08927931 -0.0580869 -0.247919 -0.0022083495 0.083175614
0.07220872 0.016096799 -0.3099123 -0.14771928 0.08545702 -0.043406554 -0.08599753 -0.0021435046
-0.0179894 -0.12437491 -0.1499529 -0.30246958 -0.15099514 0.056272592 0.13286519 -0.18096025
-0.20263807 -0.106297046 -0.2576249 -0.15172558 -0.18988207 0.07616234 0.0019955484 -0.049660213
-0.026605884 0.15580986 0.0036450748 -0.14819665 0.15072396 0.032428864 0.01559034 -0.057739884
0.12310978 0.052825626 -0.05962387 0.11618029 -0.15000464 0.12534551 0.15121344 0.022791445
0.0006678552 -0.22025986 -0.0051148 -0.037641104 0.18536858 -0.009009374 -0.23778985 -0.04004491
0.10608223 0.0645484 0.033002455 -0.05909543 0.13812926 0.09830615 -0.21383275 0.12309294
0.029906949 -0.21027088 -0.23112999 0.042033512 0.0048919856 -0.0068606893 -0.24815172 0.052899767
-0.13219167 0.124600224 -0.1914496 0.1262915 -0.075968266 -0.17835574 0.16911194 -0.1925893
-0.15868333 0.07157844 0.014353074 0.13691105 -0.024010457 0.17168112 0.12262595 -0.16409867
-0.034224886 0.16154137 0.03225608 -0.025376942 -0.024641594 -8.268689e-14 -0.0022444674 -0.0032617124
-0.108612284 0.038202576 -0.16009673 0.027988365 -0.007454745 0.007785828 0.02072112 0.1418608
0.032310218 -0.20641764 0.07196619 -0.031442817 -0.1523007 -0.1058874 0.03231434 0.04790797
0.018928863 -0.026181534 -0.13196485 -0.11690907 -0.14259242 0.06405225 -0.1398497 0.067335404
0.01261002 0.03408078 -0.018519547 -0.016010748 0.09119045 -0.093772106 0.0066184346 0.117310815
-0.11081548 -0.1103508 0.094437964 -0.06347352 0.1208171 -0.1932415 -0.20774369 0.07394798
0.114517674 -0.043962345 0.130145 -0.094054095 0.026712233 -0.1061394 -0.14864148 -0.07827982
0.007399251 0.008800473 -0.08349632 -0.055429615 -0.011628553 -0.07468615 0.107620135 0.001024002
-0.0050077657 0.032007005 0.065485306 0.09378864 0.16154705 8.8050394e-05 -0.048353612 -0.015380468
-0.010550626 0.102973156 -0.08239992 -0.06951861 0.01255187 -0.03797048 0.026234316 -0.06640354
0.067550085 -0.015074091 -0.19381018 -0.032362055 -0.0055617206 -0.09335067 -0.20787676 -0.08871825
-0.10427485 0.05994948 -0.11928093 0.10749068 -0.014274731 0.093202524 -1.4824575e-07 0.16634992
0.053030036 -0.075131446 0.10852418 -1.2059217e-05 -0.052300643 0.004141786 8.351509e-06 0.14467096
-0.041172214 -0.14982104 -0.21046838 0.14389737 0.09645316 0.10105695 -0.13944669 0.21334058
0.01276648 -0.22217828 -0.25687477 0.09154442 0.12520687 -0.03567741 -0.11185585 -0.015549021
-0.12456905 0.021699404 -0.021914596 0.058499716 0.034203444 0.041740254 0.07873668 0.21662542
0.06276464 -0.122659534 -0.019644314 -0.2604598 -0.04268028 -0.15833402 0.07240349 -0.2899257
0.2076483 0.078016445 -0.1337714 0.13627921 0.019506274 -2.3666543e-08 -0.20413671 0.023802977
00000000: 83fd 3c3e c569 be3d b54e d1bc 382c 673d
00000010: cdad 16be 1c5f b4bc 704f 8eba 7788 023d
00000020: 3589 113e 2c76 8cbd 4235 31ba 2d69 49bd
00000030: 2c7f a3bb 7fd1 63be acd9 c83b 0cda 403d
00000040: 63bb 9c3d 885a 373d a8a1 b0bd 7aad 18bd
00000050: ce1f 83be 617f 2dbe 5b71 493c 92dc 4ebe
00000060: 9053 51be 7816 29bd 07b1 f1b9 12d8 b63d
00000070: 87ec 6dbd 7ade 7dbe f5b9 10bb fa57 aa3d
00000080: 2ae2 933d 6fdd 833c d3ac 9ebe b943 17be
00000090: 1704 af3d 12cb 31bd 791f b0bd 0a7a 0cbb
000000a0: 825e 93bc 46b8 febd 418d 19be 4bdd 9abe
000000b0: 789e 1abe 177e 663d d00d 083e a54d 39be
000000c0: 5b80 4fbe 44b2 d9bd 69e7 83be f35d 1bbe
000000d0: 7270 42be 00fb 9b3d bfc7 023b 8268 4bbd
000000e0: 95f4 d9bc 9f8c 1f3e 35e2 6e3b ddc0 17be
000000f0: 6257 1a3e 21d4 043d a06e 7f3c a880 6cbd
00000100: fb20 fc3d af5f 583d 2938 74bd efef ed3d
00000110: d19a 19be 935a 003e b2d7 1a3e 20b5 ba3c
00000120: 0113 2f3a cd8b 61be 0d9a a7bb 8f2d 1abd
00000130: 43d1 3d3e 0e9c 13bc 2f7f 73be 2206 24bd
00000140: a441 d93d f431 843d 952d 073d 0d0e 72bd
00000150: c271 0d3e bc54 c93d f9f6 5abe 2718 fc3d
00000160: 6bff f43c 4051 57be 57ad 6cbe 552b 2c3d
00000170: f34c a03b a2cf e0bb 7c1b 7ebe 6dad 583d
00000180: 415d 07be 672e ff3d 5d0b 44be 8f52 013e
00000190: 4095 9bbd e3a2 36be ae2b 2d3e 2136 45be
000001a0: e27d 22be b897 923d 2829 6b3c 6932 0c3e
000001b0: 94b1 c4bc 2dcd 2f3e 5023 fb3d 7b09 28be
000001c0: 652f 0cbd 1a6b 253e f41e 043d 4ee3 cfbc
000001d0: 2bdd c9bc bf31 baa9 ea17 13bb 74c2 55bb
000001e0: 1e70 debd 4e7a 1c3d 66f0 23be db47 e53c
000001f0: ef46 f4bb 4220 ff3b 57bf a93c f543 113e
00000200: b857 043d 255f 53be 0363 933d 2fca 00bd
00000210: b7f4 1bbe 7edb d8bd 0b5c 043d 263b 443d
00000220: b410 9b3c a87a d6bc cb21 07be 066e efbd
00000230: bf03 12be d32d 833d c234 0fbe 25e7 893d
00000240: 429a 4e3c 4a98 0b3d 4eb6 97bc f928 83bc
00000250: 0fc2 ba3d 970b c0bd 74df d83b a740 f03d
00000260: 3af3 e2bd 9aff e1bd b168 c13d 68fe 81bd
00000270: f56e f73d 1ae1 45be c3ba 54be 0a72 973d
00000280: 3e88 ea3d dc11 34bd bb44 053e 6f9f c0bd
00000290: 9dd3 da3c 9d5f d9bd 7935 18be 2c51 a0bd
000002a0: 6b75 f23b dc2f 103c 1e00 abbd 2a0a 63bd
000002b0: b085 3ebc 0df5 98bd f267 dc3d ce37 863a
000002c0: 2f18 a4bb c719 033d 291d 863d 4214 c03d
000002d0: 976c 253e b2a7 b838 700e 46bd 5cfe 7bbc
000002e0: 88dc 2cbc 97e3 d23d 4ac1 a8bd c65f 8ebd
000002f0: 5ca6 4d3c ef86 1bbd 59e9 d63c 94fe 87bd
00000300: b357 8a3d 52f9 76bc 2d76 46be 138e 04bd
00000310: 183f b6bb a32e bfbd a5dd 54be eab1 b5bd
00000320: 0d8e d5bd 968d 753d 8f49 f4bd 1324 dc3d
00000330: 90e0 69bc f7e0 be3d 7b2d 1fb4 a257 2a3e
00000340: 0636 593d 84de 99bd ed41 de3d f151 4ab7
00000350: 3339 56bd d2b7 873b 751d 0c37 a024 143e
00000360: 32a4 28bd b06a 19be 0685 57be d559 133e
00000370: 3c89 c53d f2f6 ce3d 1dcb 0ebe f475 5a3e
00000380: 802a 513c b482 63be 1785 83be a47b bb3d
00000390: 3b36 003e 7a22 12bd ae14 e5bd 52c1 7ebc
000003a0: 0f1e ffbd f3c2 b13c 3d86 b3bc 669d 6f3d
000003b0: e918 0c3d d4f7 2a3d b240 a13d 0ed3 5d3e
000003c0: bf8a 803d ec34 fbbd 1ded a0bc fd5a 85be
000003d0: 84d1 2ebd 5022 22be 4848 943d 2471 94be
000003e0: c2a1 543e 16c7 9f3d 5ffb 08be c78c 0b3e
000003f0: 9fcb 9f3c 474b cbb2 3709 51be 76fe c23c

fc3_bias f4 [128]
0.028607313 -0.020166283 0.047939435 0.07224397 0.039373927 -0.04934839 0.0663707 0.043389376
-0.0069989045 -0.0017458933 0.035411578 0.0385857 -0.036714695 0.03254637 0.03356015 -0.035431076
0.015971344 -0.043867994 -0.122621626 -0.022816654 -0.0055990475 0.052809563 0.04689148 0.029911278
-0.057240464 -0.010372312 -0.035625998 0.032471318 0.015693229 -0.011140315 0.04062793 0.034299526
0.04926274 0.078759536 0.057426322 0.054742135 0.0162338 -0.0013590412 0.047675822 0.029540468
-0.0066216574 -0.03446892 0.052744113 0.053565472 0.04427872 0.02536152 -0.01092917 0.00010779562
0.031032639 0.005982894 0.06104012 0.0030670506 -0.05316429 0.03890841 0.031388737 -0.045154434
0.0033649064 -0.0067354627 -0.010955875 0.07658799 -0.030669935 0.04746649 0.01838892 0.061523292
0.024445588 0.05367688 -0.008314854 0.03178141 -0.04178796 0.06828257 -0.026958296 0.023544824
-0.00024690293 0.0087334495 0.01487906 -0.030283498 0.039828375 -0.0585204 -0.010242327 -0.029010242
-0.010460452 -0.059611175 -0.04278362 0.007290078 0.041790925 0.04522118 -0.03575837 0.06422669
0.007807548 0.08385949 -0.0054437635 0.026735215 -0.030291928 0.054537125 0.07124677 -0.003926413
0.025490595 0.031035155 0.06213273 0.0029574619 0.0057722363 0.025153412 0.019561358 0.009016794
0.006994 0.009936125 0.05154212 -0.015487265 -0.031197509 0.044300865 0.0646746 0.062043145
0.034098785 -0.007848183 0.0833038 0.045395423 0.03524994 -0.023444649 0.016058153 -0.04798215
-0.028036054 0.054178108 0.0026853455 0.0267081 -0.04284887 0.029016716 -0.03639152 -0.0055402014
00000000: e259 ea3c c333 a5bc 245c 443d a6f4 933d
00000010: 8e46 213d 8a21 4abd 5ded 873d 0fb9 313d
00000020: 1157 e5bb 75d6 e4ba bb0b 113d 0a0c 1e3d
00000030: 2662 16bd 584f 053d 5e76 093d 2d20 11bd
00000040: 56d6 823c edae 33bd 0c21 fbbd fee9 babc
00000050: 3778 b7bb d74e 583d 4811 403d 7f08 f53c
00000060: fa74 6abd a1f0 29bc 91ec 11bd a500 053d
00000070: 168f 803c de85 36bc 7969 263d a97d 0c3d
00000080: bac7 493d ae4c a13d dd37 6b3d 4a39 603d
00000090: bffc 843c db21 b2ba b947 433d dafe f13c
000000a0: 7dfa d8bb 482f 0dbd 360a 583d 7867 5b3d
000000b0: 9a5d 353d f6c2 cf3c 4310 33bc 5510 e238
000000c0: 2938 fe3c 270c c43b 3405 7a3d 9200 493b
000000d0: ccc2 59bd 6d5e 1f3d 7a91 003d dbf3 38bd
000000e0: c385 5c3b 28b5 dcbb 4580 33bc 2ada 9c3d
000000f0: 843f fbbc 396c 423d 5ca4 963c d9ff 7b3d
00000100: 1d42 c83c 4adc 5b3d 073b 08bc 392d 023d
00000110: da29 2bbd bbd7 8b3d a5d7 dcbc 13e1 c03c
00000120: c072 81b9 be16 0f3c 4dc7 733c 1915 f8bc
00000130: 1423 233d 16b3 6fbd 6fcf 27bc e3a6 edbc
00000140: 5162 2bbc d92a 74bd e13d 2fbd 9be1 ee3b
00000150: f62c 2b3d d839 393d 5e77 12bd 4889 833d
00000160: 76d6 ff3b 86be ab3d 9961 b2bb cf03 db3c
00000170: c726 f8bc 5262 5f3d d4e9 913d 24a9 80bb
00000180: a7d1 d03c 703d fe3c e47e 7e3d fad1 413b
00000190: 0725 bd3b 870e ce3c 243f a03c 2dbb 133c
000001a0: ed2d e53b 21cb 223c d41d 533d 4cbe 7dbc
000001b0: eb91 ffbc d374 353d 1e74 843d f420 7e3d
000001c0: 2bab 0b3d aa95 00bc 2f9b aa3d 8df0 393d
000001d0: 3e62 103d fe0e c0bc 638c 833c ee88 44bd
000001e0: deab e5bc dde9 5d3d 9ffc 2f3b f2ca da3c
000001f0: 4c82 2fbd 77b4 ed3c 460f 15bd 948a b5bb

fc4_weight f4 [1, 128]
-0.122040465 0.073365115 -0.17313623 -0.15564106 -0.07964467 0.08377153 -0.122926444 -0.20407225
0.106278 0.0647171 0.07129715 -0.14518404 0.111751474 0.14670987 0.121595696 0.15640737
0.0819895 0.1469759 -0.4959362 -0.092863664 -0.093726516 -0.112518065 0.056532416 -0.13699211
0.15187395 -0.10506513 0.23933008 0.12103503 0.168477 0.10055305 -0.13089727 -0.10133945
0.057101063 -0.10185001 -0.091206715 0.15659061 0.04304915 0.114257835 -0.115513116 -0.21324569
0.13102432 0.17538607 0.09618119 0.0724228 0.03790406 -0.12889564 -0.18728206 0.15866756
-0.13229197 -0.14262374 -0.15298751 -0.18931116 -0.2235112 0.076499954 0.10141008 0.14406341
0.097031355 -0.0030747717 -0.19017638 -0.07845814 0.09010519 -0.08696801 -0.106463335 -0.13970892
-0.17692721 0.056659818 0.103289776 0.0663369 0.19126819 0.0755928 0.11359136 -0.103220865
0.10786289 -0.18076627 0.13197617 -0.14378111 0.1363155 -0.1753362 0.13730489 0.13735476
0.14932367 -0.24398553 -0.28393927 -0.07204914 0.06958948 0.05107024 0.08228833 -0.11254492
0.1505301 -0.15357846 -0.12939082 0.10819208 0.13302043 0.14314751 0.12535468 -0.16521263
0.051910967 0.09275075 -0.16620019 0.18194453 -0.15207464 0.07394423 -0.18391524 0.080584966
0.14729251 0.059007317 -0.17565516 0.12059262 0.098793164 0.09195841 -0.06411616 -0.08368028
0.087672725 0.08348796 -0.09388876 0.08196558 -0.14612551 0.16646107 -0.14552034 0.092997156
0.16044922 -0.16704057 -0.12945011 -0.11983364 0.1528264 0.12516406 0.13332878 0.101607926
00000000: 5af0 f9bd 7340 963d a04a 31be 5f60 1fbe
00000010: bf1c a3bd 6890 ab3d dcc0 fbbd 51f8 50be
00000020: 48a8 d93d 668a 843d 3d04 923d 20ab 14be
00000030: f5dd e43d 1d3b 163e 2a07 f93d 4129 203e
00000040: 1cea a73d da80 163e 59eb fdbe 4e2f bebd
00000050: b0f3 bfbd df6f e6bd 898e 673d a947 0cbe
00000060: d884 1b3e 632c d7bd f212 753e 37e1 f73d
00000070: 3c85 2c3e c2ee cd3d ef09 06be 0f8b cfbd
00000080: cee2 693d bd96 d0bd 96ca babd 4a59 203e
00000090: 4e54 303d 0300 ea3d 2492 ecbd 145d 5abe
000000a0: 3d2b 063e 6898 333e a5fa c43d 6852 943d
000000b0: 4a41 1b3d 38fd 03be dec6 3fbe c079 223e
000000c0: 8c77 07be f50b 12be c2a8 1cbe c9da 41be
000000d0: 1fe0 64be 02ac 9c3d 17b0 cf3d 5c85 133e
000000e0: 60b8 c63d 1c82 49bb 99bd 42be a9ae a0bd
000000f0: 1289 b83d 491c b2bd 7309 dabd db0f 0fbe
00000100: 682c 35be 2014 683d 9789 d33d a4db 873d
00000110: cfdb 433e 66d0 9a3d 96a2 e83d 7665 d3bd
00000120: 38e7 dc3d cb1a 39be c324 073e 5b3b 13be
00000130: 4a96 0b3e 558b 33be a799 0c3e baa6 0c3e
00000140: 4ee8 183e 58d7 79be 7d60 91be 808e 93bd
00000150: ee84 8e3d 072f 513d c986 a83d f37d e6bd
00000160: 9024 1a3e ac43 1dbe 077f 04be cf93 dd3d
00000170: 8236 083e 4395 123e fa5c 003e 802d 29be
00000180: 98a0 543d 1bf4 bd3d 6230 2abe ab4f 3a3e
00000190: 74b9 1bbe 1370 973d 4754 3cbe bb09 a53d
000001a0: d9d3 163e a8b1 713d f2de 33be 43f9 f63d
000001b0: 1254 ca3d b154 bc3d 554f 83bd 9160 abbd
000001c0: c28d b33d bcfb aa3d c048 c0bd 92dd a73d
000001d0: eda1 15be c574 2a3e 4903 15be 4b75 be3d
000001e0: cd4c 243e af0c 2bbe 928e 04be 576b f5bd
000001f0: 867e 1c3e 022b 003e 5787 083e d117 d03d
