tictactoe_nn.pth (torch, 218746 bytes, 5 tensors)

fc1.weight f4 [256, 81]
0	0xbe0c070d	-0.13674565
1	0x3e01b205	0.12665565
2	0xbe151568	-0.14558947
3	0x3dce2795	0.100661434
4	0xbd4596ae	-0.048239402
5	0xbdb3518b	-0.087557875
6	0xbd8bc382	-0.068243995
7	0xbd254e2a	-0.040357746
8	0x3d9bbd3d	0.07604454
9	0x3d61a9d0	0.055093586
10	0x3dff401f	0.12463402
11	0x3debba56	0.1151015
12	0xbcc44451	-0.023958357
13	0x3d94afc5	0.07260088
14	0x3d4a55d7	0.04939827
15	0xbc96a48a	-0.018389005
16	0xbc24be13	-0.010055083
17	0x3e1b2e84	0.15154463
18	0x3dec4c5b	0.11538001
19	0xbe3b9730	-0.18319392
20	0xbbb15e92	-0.005412885
21	0x3cf0653d	0.02934515
22	0x3c97b51d	0.018518979
23	0xbdbcf6f1	-0.09226788
24	0x3e0ae303	0.1356316
25	0xbde61eee	-0.11236368
26	0xbda7ab95	-0.081870236
27	0x3d4468d9	0.047951553
28	0xbd1334d7	-0.035939064
29	0x3d10a633	0.03531475
30	0xbca244ce	-0.0198082
31	0xbd7dcf65	-0.061965365
32	0xbd47d26b	-0.048784655
33	0x3bc34663	0.0059593185
34	0xbd8abfac	-0.0677484
35	0xb897b017	-7.2330404e-05
36	0x3d21f447	0.0395396
37	0x3d8d8959	0.069109626
38	0xbe0e7195	-0.13910516
39	0x3d5e1535	0.054219443
40	0x3e56574b	0.20931737
41	0x3c48b7c6	0.012250846
42	0xbdea86ec	-0.114515156
43	0x3cf65e73	0.030074334
44	0xbd97a7cc	-0.074050516
45	0xbe438377	-0.19093119
46	0x3d757a75	0.059931237
47	0x3d8a7190	0.067599416
48	0xbdab622a	-0.08368333
49	0x3dc20947	0.09474426
50	0xbe440fc5	-0.1914664
51	0x3d45f816	0.048332296
52	0x3d29ba47	0.041437414
53	0xbc64770c	-0.013944399
54	0x3ccf25fb	0.025286665
55	0xbdc72d61	-0.09725452
56	0xbcca9705	-0.024730215
57	0x3dbd8cef	0.092553966
58	0x3db6e936	0.089312
59	0xbdf6bedb	-0.120481215
60	0xbddbb1d8	-0.107272804
61	0x3d05e1c3	0.032686006
62	0x3ddcb7ba	0.107772306
63	0x3ce70523	0.028200692
64	0xbd981208	-0.07425314
65	0xbe18ea6a	-0.14933172
66	0x3d36d9f1	0.04464144
67	0xbba8d969	-0.0051528704
68	0x3d7ecb1f	0.06220543
69	0x3e06619e	0.13123176
70	0xbd982be9	-0.0743025
71	0xbde223b8	-0.11041969
72	0xbce1f2e7	-0.027581645
73	0xbd57f3d8	-0.052722782
74	0xbdde578f	-0.10856544
75	0x3d1a156c	0.037618086
76	0x3e0fb6b7	0.14034544
77	0x3de1cd7b	0.110255204
78	0xbdffd428	-0.124916375
79	0x3e3537b7	0.17697035
80	0xbe026d67	-0.12737046
81	0x3cde6ed3	0.027152454
82	0x3c9ad140	0.018898606
83	0xbe3090dc	-0.1724276
84	0x3d9ed7cd	0.077560045
85	0xbcd9d005	-0.02658845
86	0xbe844ad7	-0.25838348
87	0xbde83788	-0.11338717
88	0xbd183a96	-0.037165247
89	0x3cf89543	0.030344611
90	0x3d8bf70e	0.06834231
91	0x3d2ec6c7	0.042670038
92	0xbe0f5359	-0.13996638
93	0x3d46767c	0.04845284
94	0x3e139008	0.14410412
95	0x3c46d947	0.012136764
96	0x3d12ab65	0.035807986
97	0xbe35c801	-0.17752077
98	0x3d9f37d6	0.07774322
99	0x3cbee386	0.023301851
100	0x3d8655a9	0.06559307
101	0xbdb22b15	-0.086996235
102	0x3d25d1a8	0.040483147
103	0xbe0d1548	-0.1377765
104	0x3d4f97d6	0.05068191
105	0x3d7d8bdc	0.06190096
106	0xbd3da1e3	-0.046296965
107	0x3ddd0506	0.10791974
108	0xbe3ab6d1	-0.18233801
109	0xbd39950a	-0.04530815
110	0xbb81d987	-0.003962699
111	0xbdd02642	-0.10163547
112	0x3c28a644	0.010293547
113	0x3d84ee3e	0.064907536
114	0x3e2b0dd7	0.16704498
115	0x3d6bc347	0.057559278
116	0x3e6b749f	0.22993706
117	0xbda35b2d	-0.07976375
118	0xbdb0e1b0	-0.086367965
119	0x3d163a90	0.036676943
120	0xbe1d3a2c	-0.15354222
121	0xbc261abb	-0.010138209
122	0x3e999020	0.2999277
123	0x3d459a1a	0.048242666
124	0xbe060f24	-0.13091713
125	0xbeaf2ee8	-0.34215474
126	0xbde04d9d	-0.109523036
127	0x3dc30af0	0.095235705
128	0xbe0f539d	-0.1399674
129	0xbb0a4189	-0.002109619
130	0x3e595289	0.21222891
131	0xbc65c3b3	-0.014023709
132	0x3e13b95d	0.14426179
133	0xbe60ca2e	-0.21952125
134	0x3dfa00ed	0.12207208
135	0xbdf92898	-0.12165946
136	0xbe11d50d	-0.14241429
137	0xbdfd7b1c	-0.12376997
138	0x3e662927	0.22476636
139	0xbe6d495a	-0.23172513
140	0x3d5c59df	0.053796645
141	0x3df7a3a8	0.12091762
142	0x3e0565bc	0.1302709
143	0xbba53f66	-0.005042958
144	0xbe48910d	-0.19586582
145	0xbd1bf2b5	-0.03807326
146	0x3d26722c	0.040636227
147	0x3dda4690	0.1065799
148	0xbcd4676d	-0.025928224
149	0xbda99ae6	-0.08281498
150	0x3abb968e	0.0014311837
151	0x3df2891c	0.11842558
152	0xbd12fb70	-0.03588432
153	0xbe52b695	-0.20577462
154	0x3e0fec15	0.14054902
155	0xbc334005	-0.010940556
156	0xbbe941c5	-0.007118436
157	0xbd9aff1b	-0.07568189
158	0xbd293ca7	-0.04131761
159	0xbe505b0a	-0.20347229
160	0x3dbc33fa	0.09189601
161	0x3ce972a1	0.028497042
162	0x3ca662bb	0.02031075
163	0xbd1e3c5f	-0.038631793
164	0xbd7285c8	-0.059209615
165	0xbd1bf3ac	-0.03807418
166	0xbda8e634	-0.08247033
167	0xbd75b2d9	-0.059985016
168	0xbdae273a	-0.085035756
169	0x3d242bbb	0.040080767
170	0x3dc31d00	0.09527016
171	0xbd8a81d6	-0.067630455
172	0xbd627680	-0.05528879
173	0xbde6c43f	-0.112679
174	0xbdcf1ba9	-0.10112698
175	0x3d4d8276	0.050173245
176	0xbe05174e	-0.12997171
177	0xbcf0cbf0	-0.02939412
178	0x3d88d7a2	0.06681754
179	0x3e10a633	0.141259
180	0xbdb6e292	-0.089299336
181	0xbd3f0854	-0.0466388
182	0x3db0a218	0.08624667
183	0x3c393e41	0.011306346
184	0x3cdb5c0c	0.02677729
185	0xbda18597	-0.07886808
186	0xbde4cbca	-0.11171682
187	0xbd2f6eea	-0.042830385
188	0x3dd1ea9a	0.10249825
189	0xbd4a3573	-0.04936738
190	0x3ccd2c95	0.025045672
191	0x3db9e588	0.09076983
192	0x3dbd370d	0.09239016
193	0x3d161202	0.036638267
194	0x3d5933f4	0.053028062
195	0x3df64864	0.12025526
196	0xbdc4ee27	-0.096157365
197	0x3d2f4a21	0.042795304
198	0x3e24d559	0.1609701
199	0x3daf2d24	0.08553532
200	0x3ddb5269	0.10709078
201	0x3d037124	0.03209032
202	0x3e261df5	0.16222365
203	0xbd77dfa4	-0.060516015
204	0x3cd30b1f	0.025762139
205	0xbd8c96f2	-0.06864728
206	0xbbd9a662	-0.006642149
207	0x3da3c21e	0.07996009
208	0xbcb36ce4	-0.021902509
209	0xbc4b521a	-0.012409711
210	0x3dad7f67	0.08471566
211	0x3de9ed45	0.11422209
212	0xbc942c78	-0.01808761
213	0x3de0de71	0.10979927
214	0xbc30367f	-0.01075518
215	0xbd34a86a	-0.044105925
216	0x3d2e46cd	0.04254799
217	0x3d7578fb	0.05992983
218	0xbda0745e	-0.07834695
219	0x3d53b4b9	0.051686022
220	0xbc9d8b0e	-0.019231346
221	0xbda366b1	-0.07978571
222	0xbd812410	-0.063057065
223	0xbdb8d10a	-0.09024246
224	0xbdb7e83a	-0.089798406
225	0xbcb68ffd	-0.022285456
226	0xbd60ed28	-0.05491367
227	0x3d8ec286	0.06970696
228	0xbdf8869d	-0.121350504
229	0x3db1b9fa	0.0867805
230	0x3c4294ff	0.011876344
231	0x3d997c9b	0.0749447
232	0xbd3f7694	-0.046743944
233	0xbd334883	-0.043770324
234	0x3d6d7b1e	0.05797874
235	0x3de4ed2b	0.11178049
236	0x3d8a4e3a	0.06753202
237	0x3d9b2afa	0.075765565
238	0xbb1ec67b	-0.002422719
239	0x3bf74d1a	0.007547033
240	0x3ca1b6ac	0.019740425
241	0x3b2d521d	0.0026446648
242	0xbd72e4e6	-0.059300326
243	0xbdc565b3	-0.09638538
244	0x3b850990	0.004059978
245	0xbc8b91cc	-0.017037295
246	0x3d844c00	0.06459808
247	0x3d890465	0.06690291
248	0x3d61b223	0.055101525
249	0xbdbecd9b	-0.0931656
250	0x3cef39a6	0.029202294
251	0xbd8fe8a8	-0.070267975
252	0xbd684a2e	-0.05671137
253	0x3ddb6da0	0.10714269
254	0xbd88eace	-0.066854104
255	0xbd82ce5e	-0.06387018

fc1.bias f4 [256]
0	0x3cbfa86d	0.023395741
1	0x3ea60adf	0.3243017
2	0xbd732842	-0.059364565
3	0x3ddc36b7	0.107526235
4	0x3d470083	0.048584472
5	0x3d5be3d1	0.05368406
6	0x3db61fb6	0.08892767
7	0xbc231b17	-0.009955189
8	0xbdb20da4	-0.08694008
9	0xbdb7800b	-0.08959969
10	0x3bbd21b6	0.005771841
11	0x3d143a9f	0.036188718
12	0x3dc230d4	0.094819695
13	0x3dfe794b	0.124254785
14	0xbb5389c7	-0.0032278167
15	0x3d7467e8	0.059669405
16	0xbd633e2f	-0.055479225
17	0xbd940d95	-0.07229153
18	0x3d9ce4e1	0.07660843
19	0x3dffb1ad	0.12485061
20	0x3dac511f	0.0841391
21	0x3d86cb29	0.065817185
22	0x3d3244c1	0.0435226
23	0x3d06e16a	0.032929815
24	0x3da08858	0.078385055
25	0x3dc0bca4	0.0941098
26	0x3d1eedd9	0.038801048
27	0x3ce603f0	0.02807805
28	0x3cf21637	0.029551608
29	0x3d93e974	0.07222262
30	0x3c93878f	0.018008975
31	0xbdb6f62f	-0.089336745
32	0xbba706a8	-0.005097229
33	0x3cfc09e7	0.03076644
34	0xbc98932a	-0.01862486
35	0x3d3011e6	0.04298582
36	0x3d7dfbcd	0.062007714
37	0x3c84ffe8	0.016235307
38	0x3b732c3e	0.0037105228
39	0x3daf5f98	0.08563155
40	0x3cc986e9	0.024600463
41	0x3dca9f89	0.0989371
42	0xbdd7b0b5	-0.10531751
43	0xbda66d41	-0.08126307
44	0xbdb6dd04	-0.08928874
45	0xbd5a3868	-0.05327645
46	0x3b8ec31c	0.004356755
47	0x3d1040d1	0.035218064
48	0xbd834e20	-0.064113855
49	0x3deffa1b	0.11717626
50	0x3e98b4c9	0.29825428
51	0xbdba415a	-0.09094496
52	0xbdedea7c	-0.1161699
53	0x3d308ece	0.04310494
54	0x3c846b58	0.016164467
55	0xbdc831c5	-0.09775118
56	0x3c2e6543	0.01064426
57	0xbcdf02f8	-0.027223095
58	0x3cb66a49	0.022267478
59	0x3df8de4a	0.12151773
60	0x3b2859cf	0.0025688296
61	0xbc04bca8	-0.00810162
62	0xbb477bfa	-0.0030438886
63	0xbdcc4a8f	-0.099751584
64	0xbd4078e7	-0.0469903
65	0x3bfb8d90	0.0076767877
66	0xbd09ad7b	-0.03361271
67	0xbccdf52e	-0.025141325
68	0x3cf12847	0.029438151
69	0x3d38afe3	0.045089614
70	0x3d919f90	0.07110512
71	0xbdea3e7c	-0.11437699
72	0xbdc74d48	-0.09731537
73	0x3d6e8fa1	0.058242444
74	0xbd17e0b6	-0.037079535
75	0xbd32fe3c	-0.043699488
76	0xbdf05a5d	-0.117359854
77	0xbde25f95	-0.11053387
78	0x3dcdd2b0	0.10049951
79	0xbcf93488	-0.030420557
80	0xbe2ce4e3	-0.16884188
81	0xbc819430	-0.015817732
82	0xbc304807	-0.01075936
83	0xbd6ab0fd	-0.057297695
84	0x3aaeec75	0.0013345616
85	0x3de8d13a	0.11368032
86	0x3e21e507	0.15810023
87	0x3bcff4af	0.006346307
88	0xbcde7960	-0.027157485
89	0xbdbbf73d	-0.09178016
90	0x3db860ee	0.09002863
91	0xbdd569c6	-0.10420565
92	0x3d9952a9	0.07486469
93	0xbc8d7c7f	-0.017271278
94	0x3dccb077	0.099945955
95	0x3bbfab6a	0.0058492916
96	0x3d84cfa1	0.064849146
97	0x3d537f56	0.05163511
98	0xbde9a11e	-0.11407684
99	0xbdc8e790	-0.09809792
100	0xbb025a7a	-0.0019890354
101	0xbd8ff7e7	-0.070297055
102	0x3c041cdb	0.00806352
103	0xbd931255	-0.07181231
104	0xbd534c88	-0.051586658
105	0xbc64ca66	-0.013964271
106	0xbdb365bc	-0.08759639
107	0x3cd41c27	0.02589233
108	0xbd786bcb	-0.060649674
109	0xbe14094f	-0.14456676
110	0xbd9ba2ac	-0.075993866
111	0xbd6320b8	-0.055451125
112	0x3d88151b	0.066446505
113	0xbd58b672	-0.05290837
114	0xbce6fc1b	-0.028196385
115	0x3d1fbf2b	0.03900067
116	0x3c3f2dee	0.011668665
117	0xbd381a5b	-0.04494701
118	0xbd5bf2a8	-0.053698212
119	0xbe2f7f4f	-0.17138408
120	0xbdba4348	-0.09094864
121	0x3ceae353	0.02867285
122	0x3dcc1bfb	0.09966274
123	0xbdc0fadc	-0.09422848
124	0x3ce68805	0.028141031
125	0x3da0e9b6	0.07857077
126	0xbdb0c3a0	-0.086310625
127	0x3d05915a	0.03260932
128	0xbe1277f7	-0.14303575
129	0xbcaccc26	-0.02109344
130	0x3da40019	0.08007831
131	0xbd5f03fd	-0.054447163
132	0xbdc6843d	-0.09693191
133	0x3c43a245	0.011940544
134	0x3cc8569f	0.024455367
135	0x3b9f39c1	0.0048591797
136	0x3d9d3b09	0.07677276
137	0xbe032725	-0.12807901
138	0xbe5f774d	-0.21822853
139	0xbe10fab2	-0.14158133
140	0xbdb1a37d	-0.08673761
141	0x3d07820c	0.033083007
142	0xbd390699	-0.045172308
143	0xbc94cdde	-0.018164571
144	0x3da0fdc1	0.078609
145	0xbdff3f45	-0.124632396
146	0x3dd801b9	0.105472036
147	0x3d9c1fc4	0.07623246
148	0x3d43432b	0.04767148
149	0x3c37a64c	0.011209082
150	0xbded1172	-0.11575593
151	0x3c3d4401	0.011551858
152	0xbcbcc0c2	-0.023041133
153	0xbd8745e1	-0.06605125
154	0xbdde44dc	-0.10852978
155	0xbbf457d0	-0.007456757
156	0xbdb9438d	-0.090460874
157	0xbcc43e24	-0.023955412
158	0x3d6651a2	0.056230195
159	0x3e0188d5	0.12649854
160	0x3dccdfb5	0.10003606
161	0xbda49ea5	-0.080380715
162	0x3d9251be	0.07144497
163	0x3c54b293	0.012982029
164	0x3d5f206a	0.05447427
165	0x3df5e4ed	0.12006555
166	0x3df8fcab	0.121575676
167	0xbdde31b2	-0.108493224
168	0xbd9aca7a	-0.075581506
169	0xbe7411cd	-0.23834915
170	0x3da70c9b	0.08156701
171	0xbbf53da9	-0.007484157
172	0xbddaefcd	-0.106902696
173	0x3b8eb2c0	0.0043548048
174	0xbc125d2b	-0.008933346
175	0xbdb5a9d9	-0.088702865
176	0x3cfb2559	0.030657457
177	0xbdb327bd	-0.08747814
178	0xbd8b9175	-0.06814853
179	0xbcf5a505	-0.029985914
180	0xbc8873a5	-0.016656706
181	0x3e025e66	0.12731323
182	0xbd715e0c	-0.05892758
183	0xbb8b548c	-0.004252022
184	0xbdea5a9b	-0.11443063
185	0xbd661bd6	-0.05617889
186	0xbd66bac3	-0.056330454
187	0xbcb30925	-0.021854946
188	0xbd8b8d81	-0.06814099
189	0x3d011cd5	0.031521637
190	0x3bbfc96a	0.005852868
191	0xbd195a7b	-0.037439805
192	0x3be1556a	0.006876637
193	0x3d9a6fde	0.07540868
194	0xbd210f1f	-0.03932106
195	0x3c85ea56	0.016347092
196	0x3d58d8ad	0.052941013
197	0xbd8aeae2	-0.067830816
198	0x3d32126d	0.043474603
199	0x3d953775	0.07285968
200	0x3d74c6b8	0.059759825
201	0xbd31f0cd	-0.043442536
202	0xbd2889f3	-0.041147184
203	0x3cded520	0.027201235
204	0xbe075d6b	-0.1321923
205	0xbc94c0bc	-0.01815831
206	0x3d80860a	0.06275566
207	0xbe018b61	-0.12650825
208	0x3d05d765	0.03267612
209	0xbe04ccff	-0.12968825
210	0xbc033599	-0.008008384
211	0xbda07c8f	-0.07836258
212	0xbd2a34e2	-0.04155434
213	0x3d03a851	0.03214294
214	0xbdaf4f46	-0.08560042
215	0xbc5351fa	-0.012897963
216	0xb9e8607c	-0.00044322375
217	0xbd951534	-0.07279435
218	0x3db3a2cf	0.08771288
219	0x3d7d63ea	0.061862864
220	0x3d24f066	0.040268324
221	0xbd8ca517	-0.06867426
222	0x3c922b64	0.017842956
223	0x3dcd196a	0.10014613
224	0x3dde858d	0.108653165
225	0xbd2d24ec	-0.04227154
226	0xbdc1fa3a	-0.09471555
227	0x3ce019dc	0.02735608
228	0xbd52bf3f	-0.051451918
229	0x3d923d74	0.071406275
230	0x3d7c7eb8	0.061644286
231	0x3d650daf	0.055921253
232	0x3bb0fad2	0.005400994
233	0xbd4b7781	-0.049674515
234	0x3d215d2e	0.039395504
235	0x3d430ab7	0.04761764
236	0xbd1f9806	-0.03896334
237	0xbd10ac20	-0.0353204
238	0xbd538426	-0.0516397
239	0xbd27f2c2	-0.041002996
240	0x3cba97b6	0.02277742
241	0x3da55e7c	0.08074662
242	0xbdcdaad2	-0.10042347
243	0xbe13465b	-0.14382307
244	0x3c00473c	0.007829484
245	0x3d73dbdb	0.059535842
246	0x3daf6359	0.08563871
247	0x3d8eb0bd	0.06967304
248	0xbd944a50	-0.072407365
249	0xbe669732	-0.22518614
250	0x3d2dfcfa	0.042477585
251	0x3deeccf4	0.116601855
252	0xbe095d93	-0.13414602
253	0x3d173f95	0.03692587
254	0xbd94d3e2	-0.07266976
255	0xbd8daf20	-0.06918168

fc2.weight f4 [128, 256]
0	0x3d3c1d34	0.045926288
1	0x3b263bc0	0.0025365204
2	0x3c96ad94	0.018393315
3	0x3cc92349	0.024552958
4	0x3d31df87	0.043426063
5	0x3d2d74f2	0.042347856
6	0x3d8bc547	0.06824737
7	0xbddf7bb8	-0.10912269
8	0xbb4db306	-0.0031387224
9	0x3a90cfdd	0.0011048276
10	0xbd912311	-0.070867665
11	0xbdcc8ae0	-0.09987426
12	0xbdbb1d17	-0.09136408
13	0x3d6cb290	0.057787478
14	0x3c322871	0.0108739
15	0x3db43cc4	0.088006526
16	0xbde55059	-0.11196966
17	0x3ccfa155	0.025345484
18	0x3e098721	0.13430454
19	0xbd27da5b	-0.040979724
20	0x3ce5457e	0.027987238
21	0x3daa199f	0.08305668
22	0xbc8434e9	-0.01613851
23	0xbba7058f	-0.005097098
24	0x3d62d51d	0.055379022
25	0xbb8cbac8	-0.004294727
26	0x3c5881d2	0.013214545
27	0xbc313f7e	-0.01081836
28	0xbd22a028	-0.03970352
29	0xbd02e9f2	-0.03196139
30	0x3c02b310	0.007977262
31	0xbd2e8e53	-0.0426162
32	0xbd1dc206	-0.038515113
33	0x3de7f668	0.11326295
34	0x3cb97972	0.022640917
35	0xbc8e8627	-0.017397953
36	0xbe1883b0	-0.14893985
37	0x3d4b4654	0.049627617
38	0x3dd8093b	0.105486356
39	0xbc021867	-0.007940388
40	0xbdd61b9d	-0.104544856
41	0xbd7d9355	-0.061908085
42	0x3bc1e7a4	0.0059175063
43	0x3c9c8453	0.019106066
44	0xbd4a3bee	-0.04937356
45	0xbb2e1a8f	-0.0026566123
46	0x3b9c0de5	0.0047623985
47	0xbc95db20	-0.018292964
48	0xbd8b2abe	-0.06795262
49	0x3c47f016	0.012203237
50	0x3d0a34d3	0.033741783
51	0xbc49f5a3	-0.012326631
52	0x3da8e0f3	0.08246031
53	0x3dadfb7e	0.08495234
54	0x3d79806d	0.060913492
55	0x3ce970c8	0.028496161
56	0x3d113f00	0.035460472
57	0x3d2db33e	0.042407267
58	0x3d806469	0.06269152
59	0x3ccef0d6	0.025261324
60	0x3cd128ba	0.025532115
61	0x3d1b5b50	0.03792888
62	0x3c2cc382	0.01054466
63	0xbd8fbc60	-0.070183516
64	0x3cd2f37c	0.025750868
65	0xbe0edfa9	-0.13952507
66	0xbcdf73aa	-0.027276833
67	0x3dac6770	0.08418167
68	0xbcd99c0e	-0.02656367
69	0xbd3fc8f3	-0.0468225
70	0x3a76c3ff	0.0009413361
71	0xbd19ec93	-0.03757913
72	0x3bdfface	0.006835318
73	0x3d130e4b	0.035902303
74	0x3d2e7d06	0.0425997
75	0x3d7e7595	0.062123854
76	0xbc4823ca	-0.012215564
77	0xbda1de96	-0.07903783
78	0xbda4da49	-0.08049447
79	0x3a6bc6f3	0.00089941843
80	0xbcf7689f	-0.030201254
81	0x3d0e037e	0.0346713
82	0x3d35ef73	0.04441781
83	0xbd2b70f9	-0.041855786
84	0x3d973fcc	0.07385215
85	0xbd3f5960	-0.046716094
86	0x3da401d9	0.08008165
87	0x395563d8	0.00020350458
88	0xbd60172f	-0.05470961
89	0xbc99c9ba	-0.018772949
90	0xbe162560	-0.14662695
91	0xbbe93e39	-0.007118013
92	0xbd0132be	-0.031542532
93	0xbd64e20e	-0.055879645
94	0xbcff17a6	-0.031139206
95	0xbc7c6746	-0.015405482
96	0xbd2c2094	-0.042023256
97	0x3cc60441	0.02417195
98	0x3ca99fb0	0.020706028
99	0xbdba7558	-0.09104413
100	0xbd204c6b	-0.039135378
101	0x3d03bc26	0.032161854
102	0xbdbff3f6	-0.09372704
103	0x3cdcc923	0.026951378
104	0x3cebafde	0.028770383
105	0xbd19a2b7	-0.037508693
106	0xbde4ceb9	-0.11172242
107	0x3c6b8be9	0.014376619
108	0xbd9df080	-0.07711887
109	0xbd6ac824	-0.057319775
110	0xbe2ac325	-0.16676004
111	0xbc9c1c6b	-0.01905652
112	0x3c7ecd50	0.01555188
113	0x3d12a4f3	0.03580184
114	0xbcf0b298	-0.029382035
115	0xbcc537ef	-0.024074523
116	0xbd4bb8da	-0.049736835
117	0xbdd49ae5	-0.10381106
118	0x3c9d8a09	0.01923086
119	0xbcc97450	-0.024591595
120	0x3d6ae538	0.057347506
121	0xbd6614d0	-0.056172192
122	0x3dda390f	0.10655414
123	0x3dc229b7	0.09480613
124	0xbc81b540	-0.015833497
125	0xbc229278	-0.009922616
126	0xbcb2bdf9	-0.021819102
127	0x3d1e5898	0.03865871
128	0x3ad478f3	0.0016210362
129	0x3d335053	0.043777775
130	0xbd84a510	-0.06476796
131	0xbd31c935	-0.043404777
132	0x3d31efe9	0.043441687
133	0x3cd6588b	0.026165267
134	0x3d20bb51	0.03924114
135	0xbc6cad49	-0.014445611
136	0xbcb973bc	-0.022638194
137	0xbd09d6a2	-0.033651955
138	0xbd2bb73b	-0.04192279
139	0x3cc46bdc	0.023977213
140	0x3d06a195	0.03286894
141	0xbe05bb08	-0.13059628
142	0x3d98200c	0.074279875
143	0x3c0e3007	0.008678443
144	0x3da7d923	0.081957124
145	0x3db0360d	0.08604059
146	0xbd3f6065	-0.04672279
147	0x3ce25684	0.027629144
148	0xbdab80ea	-0.08374198
149	0xbc336448	-0.010949202
150	0xbd94b3d9	-0.07260866
151	0xbdcab8db	-0.0989854
152	0xbd09e046	-0.03366115
153	0x3d003d67	0.031308558
154	0x3c277cb6	0.0102226045
155	0xbe77bca2	-0.24193051
156	0x3cc096b8	0.023509368
157	0xbd1bc78f	-0.03803211
158	0x3c614e38	0.013751559
159	0x3d74470c	0.059638068
160	0x3d27716e	0.04087966
161	0xbdc27448	-0.09494835
162	0x3dd8732f	0.105688445
163	0x3d894660	0.06702876
164	0xbca436d0	-0.020045668
165	0x3c9beaea	0.019032914
166	0xbd24bd28	-0.040219456
167	0xbd48f821	-0.04906476
168	0xbc81c3ca	-0.01584043
169	0x3d107076	0.0352635
170	0x3da65643	0.08121922
171	0xbcf87abb	-0.03033196
172	0xbd819cfd	-0.06328771
173	0xbd32696a	-0.043557562
174	0xbb9a9bbf	-0.0047182734
175	0x3cf2766f	0.02959749
176	0x3b53aaa9	0.0032297766
177	0xbd89418d	-0.06701956
178	0xbd6b2850	-0.057411492
179	0xbd4a9c9b	-0.049465757
180	0xbb79f7bb	-0.0038142044
181	0x3c939017	0.018013043
182	0x3d0c38bd	0.034233797
183	0xbd68cb73	-0.05683465
184	0x3d0d3535	0.03447457
185	0x3d01470f	0.031561907
186	0x3c501f27	0.01270274
187	0xbe10909e	-0.14117667
188	0xbc94c100	-0.018158436
189	0xbdd94ce3	-0.10610368
190	0xbd18bdbb	-0.037290316
191	0x3d96e527	0.07367926
192	0x3d4fb24a	0.05070714
193	0x3d4e7e28	0.05041328
194	0x3d3225a4	0.04349293
195	0x3dc23b63	0.09483983
196	0xbd8d8a6f	-0.0691117
197	0x3cf6933e	0.030099507
198	0xbd3495cf	-0.04408818
199	0xbbfaec82	-0.0076575885
200	0x3d93b9d4	0.07213178
201	0xbcf661d2	-0.030075941
202	0x3d3d83b0	0.046268165
203	0x3d985f4d	0.07440052
204	0x3d18b778	0.037284344
205	0x3b1fbd8d	0.0024374456
206	0xbd8986bb	-0.06715151
207	0xbcbff5f0	-0.023432702
208	0xbd0ddce0	-0.03463447
209	0xbc8c8287	-0.017152084
210	0x3d3f83b5	0.046756465
211	0xbd8ed425	-0.06974057
212	0xbd648707	-0.055792835
213	0xbcf0a1df	-0.029374061
214	0x3c42ae52	0.0118823815
215	0xbc68b8fa	-0.014204258
216	0xbdc2b49b	-0.09507104
217	0xbd139917	-0.03603467
218	0x3d1cf9f5	0.038324315
219	0xbc0d3ae9	-0.008620002
220	0x3d3db303	0.046313297
221	0x3dece6e5	0.11567477
222	0x3ded7d0a	0.11596115
223	0x3d412837	0.047157492
224	0xbc0c2911	-0.008554713
225	0xbc2b156b	-0.010442118
226	0xbda47a2a	-0.080311134
227	0x3d770e46	0.060316347
228	0xbccc768c	-0.024958871
229	0x3c92a2e0	0.01789993
230	0xbc9e3ab5	-0.019315103
231	0x3d397156	0.0452741
232	0x3d80ebff	0.06295013
233	0xbd611691	-0.05495316
234	0x3c84d6ff	0.0162158
235	0x3d0167db	0.031593185
236	0xbdd5a4a3	-0.104317926
237	0x3bbc614e	0.0057489043
238	0xbcab07f7	-0.020877821
239	0x3d32b89c	0.04363309
240	0xbb52330c	-0.0032073883
241	0x3cc6545b	0.024210146
242	0xbd5ffc92	-0.05468423
243	0x3d1a44e2	0.037663348
244	0x3cb5df59	0.022201227
245	0x3d7eae7e	0.062178127
246	0xbe06e38b	-0.13172738
247	0x3d4a88fd	0.04944705
248	0x3d01098c	0.031503245
249	0xbc499790	-0.012304202
250	0xbdb2cce6	-0.087304875
251	0xbcb29ec9	-0.02180423
252	0x3d1611d4	0.036638096
253	0x3ba48d41	0.0050217216
254	0xbc8997a9	-0.01679595
255	0xbb29c83f	-0.002590671

fc2.bias f4 [128]
0	0x3d1bd225	0.038042206
1	0xbd1aaa3c	-0.037760004
2	0xbcb5a141	-0.022171618
3	0xbd8570da	-0.06515665
4	0x3c810c9e	0.015753087
5	0x3d1fd417	0.039020624
6	0x3d35926b	0.04432909
7	0x3d706cd1	0.058697525
8	0xbc8b5768	-0.017009452
9	0xbd7c738f	-0.061633643
10	0xbd988880	-0.0744791
11	0x3c6d16ce	0.014470769
12	0xbc8f6179	-0.017502533
13	0xbd959b4f	-0.073050134
14	0xbbd0223a	-0.0063517364
15	0xbd7ecf0f	-0.062209185
16	0x3cce6b5f	0.025197683
17	0x3d28f197	0.041246023
18	0x3d633f93	0.05548055
19	0xbd0cfa93	-0.034418654
20	0x3c2cd144	0.01054794
21	0xbcdad5bd	-0.026713246
22	0xbd912e56	-0.07088916
23	0xbd2e0300	-0.04248333
24	0x3d3f5501	0.046711925
25	0xbd417f00	-0.047240257
26	0xbd43a9fd	-0.047769535
27	0xbbc9ec39	-0.006162193
28	0x3cb866a4	0.02250988
29	0xbd9c04a0	-0.0761807
30	0xbcd47dfd	-0.025938982
31	0xbc98b82f	-0.018642513
32	0xbd310068	-0.043213278
33	0xbc11ea92	-0.008906024
34	0xbc2303f6	-0.009949675
35	0x3c2cc61b	0.010545279
36	0xbd8091da	-0.06277819
37	0x3d5cc0a6	0.05389466
38	0xbc3348ce	-0.010942651
39	0xbd77085e	-0.060310714
40	0xbd219266	-0.039446257
41	0xbbd13bc8	-0.0063853003
42	0x3d55c773	0.052192163
43	0xbda580d8	-0.080812156
44	0xbd611398	-0.054950327
45	0xbc88b002	-0.01668549
46	0xbc36b838	-0.01115232
47	0x3adba979	0.0016758881
48	0xbd29dd3b	-0.041470747
49	0x3afcc2fe	0.0019284186
50	0x3b5dcecf	0.0033845191
51	0xbcfe28f4	-0.031025387
52	0xbd62d23d	-0.05537628
53	0xbd315314	-0.04329212
54	0x3cf9ded4	0.03050176
55	0xbcbc8e5a	-0.023017097
56	0xbc6431a4	-0.013927851
57	0x3a8bd5de	0.0010668596
58	0x3b2ebed0	0.0026664026
59	0xbc66afcd	-0.01408
60	0xbbcefdfe	-0.0063168993
61	0xbcc9ec53	-0.024648821
62	0xbd22be4f	-0.039732274
63	0x3d289efd	0.041167248
64	0xbc9529b5	-0.018208364
65	0x3d08a1c6	0.033357404
66	0xbbf53d56	-0.0074841185
67	0xbc4dba5f	-0.012556641
68	0xbd6f5432	-0.058429904
69	0xbd497d1c	-0.04919158
70	0xbce370be	-0.02776372
71	0xbd74e15d	-0.059785236
72	0x3d333da9	0.043759976
73	0xbd805c1e	-0.0626757
74	0xbd195bf8	-0.037441224
75	0x3d1b043b	0.03784583
76	0xbd65aee9	-0.05607501
77	0xbd0c3197	-0.03422698
78	0x3d506e08	0.050886184
79	0x3d422c38	0.04740545
80	0x3cd7d4ab	0.026346525
81	0x3c70f2b4	0.014706302
82	0x3b9f4cae	0.004861436
83	0xbc34114a	-0.01099045
84	0x3d38c807	0.045112636
85	0xbd9079bc	-0.07054469
86	0x3d380fdb	0.044936996
87	0xbc9c610d	-0.019089246
88	0xbd181bfc	-0.037136063
89	0xbd93e2f3	-0.072210215
90	0xbd9b1fdc	-0.07574436
91	0xbc14f963	-0.009092662
92	0xbccab71c	-0.024745516
93	0x3c778ec1	0.015109719
94	0x3d1a0d30	0.037610233
95	0x3c34448d	0.011002672
96	0x3cf45519	0.029825734
97	0xbd8d8dd8	-0.0691182
98	0x3b327b68	0.00272342
99	0xbc143b00	-0.00904727
100	0xbd7aa025	-0.061187882
101	0xbba2b858	-0.004965823
102	0x3d072f1d	0.033003915
103	0x3b9d2335	0.004795457
104	0xbd2f5cb3	-0.042813014
105	0xbbcf96a0	-0.0063350946
106	0xbd68dccf	-0.056851204
107	0x3d982a88	0.07429987
108	0x3c82b7dc	0.015956812
109	0xbc833f0b	-0.016021272
110	0x3d4ae579	0.04953525
111	0xbd7cb424	-0.061695233
112	0xbc9c7f6c	-0.019103728
113	0x3d77f78e	0.06053882
114	0xbcb4b624	-0.022059508
115	0xbb91811e	-0.004440441
116	0xbd498b70	-0.049205244
117	0x3d448760	0.047980666
118	0xbc8e6ed3	-0.01738683
119	0x3d790ed1	0.060805146
120	0xba86162a	-0.0010229994
121	0xbcb57ecf	-0.022155194
122	0xbd0c421a	-0.034242727
123	0xbca307c8	-0.019901171
124	0x3c6e7eb7	0.014556578
125	0x3d4dadd0	0.05021459
126	0xbcf1bf48	-0.029510155
127	0x3cada16c	0.021195136

fc3.weight f4 [1, 128]
0	0xbe145026	-0.14483699
1	0x3e71146d	0.23542948
2	0x3ebcbe19	0.36863783
3	0x3e88dde6	0.26731795
4	0x3e4c6bee	0.19963047
5	0xbe3dc278	-0.18531215
6	0xbe08818f	-0.13330673
7	0xbde6c1a7	-0.11267405
8	0xbe646a9a	-0.2230629
9	0xbf3982aa	-0.72465
10	0x3ec8ddb8	0.39231658
11	0xbe8e8f22	-0.27843577
12	0x3e87c7d9	0.2651966
13	0xbed506fe	-0.41606897
14	0x3edd7def	0.43260142
15	0xbe8e19c2	-0.27754027
16	0x3eec45c7	0.46146986
17	0xbebb89a1	-0.3662844
18	0xbe810cf9	-0.2520521
19	0xbeb6d63a	-0.35710317
20	0xbec4da49	-0.38447788
21	0x3e639c41	0.22227575
22	0x3e7fb9be	0.24973199
23	0xbe05e42f	-0.13075326
24	0xbd25b965	-0.04046001
25	0xbe811dd8	-0.2521808
26	0xbe724696	-0.23659739
27	0xbe9782ec	-0.29592073
28	0x3d8b3a51	0.06798232
29	0x3e9aeda5	0.30259433
30	0xbdeefa5b	-0.11668845
31	0x3eaf865a	0.3428219
32	0x3e051602	0.12996677
33	0x3eb20f0b	0.34777102
34	0x3e3f277c	0.18667406
35	0xbe2f83b0	-0.17140079
36	0x3ebf26c3	0.3733426
37	0xbe5f4477	-0.21803461
38	0x3dcdf280	0.10056019
39	0xbee9294c	-0.4553932
40	0x3ea5e1b8	0.32398772
41	0xbe8df546	-0.2772619
42	0xbde443d5	-0.111457504
43	0x3ee3a37c	0.44460666
44	0x3dcd8c04	0.100364715
45	0xbd647c95	-0.055782873
46	0xbdd03a36	-0.10167353
47	0x3ec8bb42	0.39205366
48	0x3da4130d	0.08011446
49	0xbe7e042a	-0.24806276
50	0xbe09b8c3	-0.13449387
51	0xbe2d29dd	-0.16910501
52	0xbe7d7c6a	-0.24754491
53	0xbec6c8c8	-0.3882506
54	0x3e9bc7e7	0.3042595
55	0x3e5d4c20	0.2161107
56	0x3ec30cee	0.38095802
57	0xbdb70d47	-0.08938079
58	0xbc452712	-0.012033241
59	0xbe6973f1	-0.22798134
60	0xbe360acf	-0.1777756
61	0xbec2df4d	-0.3806099
62	0x3e43b19e	0.19110724
63	0x3e591f4d	0.21203347
64	0xbeb3cc2b	-0.35116705
65	0xbdb8ab2c	-0.090170234
66	0xbe0a7633	-0.13521652
67	0xbef702ca	-0.48244315
68	0xbeed4cc1	-0.4634762
69	0xbe06d058	-0.13165414
70	0xbed76bc3	-0.42074403
71	0xbeb4b935	-0.35297552
72	0xbe3d0e43	-0.18462472
73	0xbe8334a9	-0.25626114
74	0x3e256c6c	0.16154641
75	0x3eb9de8e	0.36302608
76	0x3ebc832f	0.36818835
77	0xbe45f7aa	-0.19332758
78	0x3e25b5bf	0.16182612
79	0x3e1a799c	0.15085453
80	0xbed1054e	-0.4082436
81	0x3d21af45	0.03947379
82	0x3dc53476	0.09629147
83	0x3e0199cb	0.12656324
84	0xbd297707	-0.04137328
85	0x3e797676	0.24361596
86	0xbea53fb9	-0.3227518
87	0x3eb39f55	0.35082498
88	0x3f22025e	0.6328486
89	0x3e424da8	0.18974936
90	0x3e772627	0.24135648
91	0x3da33f56	0.07971065
92	0xbdd96d67	-0.1061657
93	0x3e81da30	0.25361776
94	0x3d0f38d4	0.034966305
95	0x3e8b7c32	0.2724319
96	0x3e3a1753	0.1817296
97	0x3dfc597a	0.12321754
98	0x3e9440cf	0.28955695
99	0xbf03c91b	-0.5147874
100	0x3ea22cc4	0.31674778
101	0xbdadbb08	-0.08482939
102	0x3eb6d7f8	0.35711646
103	0xbe7c85e9	-0.24660458
104	0x3dc21494	0.09476581
105	0xbe49b3b5	-0.19697459
106	0xbe986457	-0.29764053
107	0xbe8b62c5	-0.27223793
108	0xbe481d77	-0.1954249
109	0xbe86c413	-0.26321468
110	0x3e86882a	0.2627576
111	0x3ded6aa5	0.115926065
112	0xbd694ffc	-0.056961045
113	0xbd3471a1	-0.044053677
114	0x3e6221f5	0.22083266
115	0x3d97a4ce	0.07404481
116	0xbe95eb56	-0.2928111
117	0xbd59c0ce	-0.05316239
118	0x3eeca066	0.46216124
119	0xbe9c1891	-0.30487493
120	0x3d6f7159	0.058457706
121	0x3e9f651e	0.31131834
122	0x3e9a500c	0.30139196
123	0xbe88e78e	-0.26739162
124	0x3e596663	0.21230464
125	0xbe4f2046	-0.20227155
126	0xbeb133c9	-0.3460982
127	0x3d80b9fe	0.06285475
